┏━━━━━━━━━━━━━━━━━━━━━━━━━━━━━━━━━┳━━━━━━━━━━━━━━━━━━━━━━━━┳━━━━━━━━━━━━━━━┓
┃ Layer (type)                    ┃ Output Shape           ┃       Param # ┃
┡━━━━━━━━━━━━━━━━━━━━━━━━━━━━━━━━━╇━━━━━━━━━━━━━━━━━━━━━━━━╇━━━━━━━━━━━━━━━┩
│ conv2d (Conv2D)                 │ (None, 256, 320, 8)    │           608 │
├─────────────────────────────────┼────────────────────────┼───────────────┤
│ p_re_lu (PReLU)                 │ (None, 256, 320, 8)    │       655,360 │
├─────────────────────────────────┼────────────────────────┼───────────────┤
│ max_pooling2d (MaxPooling2D)    │ (None, 128, 160, 8)    │             0 │
├─────────────────────────────────┼────────────────────────┼───────────────┤
│ conv2d_1 (Conv2D)               │ (None, 128, 160, 16)   │         3,216 │
├─────────────────────────────────┼────────────────────────┼───────────────┤
│ p_re_lu_1 (PReLU)               │ (None, 128, 160, 16)   │       327,680 │
├─────────────────────────────────┼────────────────────────┼───────────────┤
│ max_pooling2d_1 (MaxPooling2D)  │ (None, 64, 80, 16)     │             0 │
├─────────────────────────────────┼────────────────────────┼───────────────┤
│ conv2d_2 (Conv2D)               │ (None, 64, 80, 32)     │        12,832 │
├─────────────────────────────────┼────────────────────────┼───────────────┤
│ p_re_lu_2 (PReLU)               │ (None, 64, 80, 32)     │       163,840 │
├─────────────────────────────────┼────────────────────────┼───────────────┤
│ max_pooling2d_2 (MaxPooling2D)  │ (None, 32, 40, 32)     │             0 │
├─────────────────────────────────┼────────────────────────┼───────────────┤
│ conv2d_3 (Conv2D)               │ (None, 32, 40, 64)     │        51,264 │
├─────────────────────────────────┼────────────────────────┼───────────────┤
│ p_re_lu_3 (PReLU)               │ (None, 32, 40, 64)     │        81,920 │
├─────────────────────────────────┼────────────────────────┼───────────────┤
│ max_pooling2d_3 (MaxPooling2D)  │ (None, 16, 20, 64)     │             0 │
├─────────────────────────────────┼────────────────────────┼───────────────┤
│ conv2d_4 (Conv2D)               │ (None, 16, 20, 64)     │       102,464 │
├─────────────────────────────────┼────────────────────────┼───────────────┤
│ p_re_lu_4 (PReLU)               │ (None, 16, 20, 64)     │        20,480 │
├─────────────────────────────────┼────────────────────────┼───────────────┤
│ flatten (Flatten)               │ (None, 20480)          │             0 │
├─────────────────────────────────┼────────────────────────┼───────────────┤
│ dense (Dense)                   │ (None, 2048)           │    41,945,088 │
├─────────────────────────────────┼────────────────────────┼───────────────┤
│ dense_1 (Dense)                 │ (None, 2)              │         4,098 │
└─────────────────────────────────┴────────────────────────┴───────────────┘
 Total params: 43,368,850 (165.44 MB)
 Trainable params: 43,368,850 (165.44 MB)
 Non-trainable params: 0 (0.00 B)
 150 Epochs
 NVIDIA GeForce RTX 4060, compute capability: 8.9
 Model using image as input and pixel point (x-y) as output.
 With randomness (3000).
 Prefetch = Auto
 Callbacks = Auto
 No validation
 No dropout.
…
